…
|    └─MobileViTConvLayer: 2-3                     --
|    |    └─Conv2d: 3-5                            25,600
|    |    └─BatchNorm2d: 3-6                       640
|    |    └─SiLU: 3-7                              --
├─Dropout: 1-2                                     --
├─Linear: 1-3                                      3,852
===========================================================================
Total params: 954,876
Trainable params: 954,876
Non-trainable params: 0
===========================================================================
2024-08-29 05:31:23,093 VisionTransformer(
  (patch_embed): PatchEmbed(
    (proj): Conv2d(3, 768, kernel_size=(16, 16), stride=(16, 16))
    (norm): Identity()
  )
  (pos_drop): Dropout(p=0.0, inplace=False)
  (patch_drop): Identity()
  (norm_pre): Identity()
  (blocks): Sequential(
    (0): Block(
      (norm1): LayerNorm((768,), eps=1e-06, elementwise_affine=True)
      (attn): Attention(
        (qkv): Linear(in_features=768, out_features=2304, bias=True)
        (q_norm): Identity()
        (k_norm): Identity()
        (attn_drop): Dropout(p=0.0, inplace=False)
        (proj): Linear(in_features=768, out_features=768, bias=True)
        (proj_drop): Dropout(p=0.0, inplace=False)
      )
      (ls1): Identity()
      (drop_path1): Identity()
      (norm2): LayerNorm((768,), eps=1e-06, elementwise_affine=True)
      (mlp): Mlp(
        (fc1): Linear(in_features=768, out_features=3072, bias=True)
        (act): GELU(approximate='none')
        (drop1): Dropout(p=0.0, inplace=False)
        (norm): Identity()
        (fc2): Linear(in_features=3072, out_features=768, bias=True)
        (drop2): Dropout(p=0.0, inplace=False)
      )
      (ls2): Identity()
      (drop_path2): Identity()
    )
    (1): Block(
      (norm1): LayerNorm((768,), eps=1e-06, elementwise_affine=True)
      (attn): Attention(
        (qkv): Linear(in_features=768, out_features=2304, bias=True)
        (q_norm): Identity()
        (k_norm): Identity()
        (attn_drop): Dropout(p=0.0, inplace=False)
        (proj): Linear(in_features=768, out_features=768, bias=True)
        (proj_drop): Dropout(p=0.0, inplace=False)
      )
      (ls1): Identity()
      (drop_path1): Identity()
      (norm2): LayerNorm((768,), eps=1e-06, elementwise_affine=True)
      (mlp): Mlp(
        (fc1): Linear(in_features=768, out_features=3072, bias=True)
        (act): GELU(approximate='none')
        (drop1): Dropout(p=0.0, inplace=False)
        (norm): Identity()
        (fc2): Linear(in_features=3072, out_features=768, bias=True)
        (drop2): Dropout(p=0.0, inplace=False)
      )
      (ls2): Identity()
      (drop_path2): Identity()
    )
    (2): Block(
      (norm1): LayerNorm((768,), eps=1e-06, elementwise_affine=True)
      (attn): Attention(
        (qkv): Linear(in_features=768, out_features=2304, bias=True)
        (q_norm): Identity()
        (k_norm): Identity()
        (attn_drop): Dropout(p=0.0, inplace=False)
        (proj): Linear(in_features=768, out_features=768, bias=True)
        (proj_drop): Dropout(p=0.0, inplace=False)
      )
      (ls1): Identity()
      (drop_path1): Identity()
      (norm2): LayerNorm((768,), eps=1e-06, elementwise_affine=True)
      (mlp): Mlp(
        (fc1): Linear(in_features=768, out_features=3072, bias=True)
        (act): GELU(approximate='none')
        (drop1): Dropout(p=0.0, inplace=False)
        (norm): Identity()
        (fc2): Linear(in_features=3072, out_features=768, bias=True)
        (drop2): Dropout(p=0.0, inplace=False)
      )
      (ls2): Identity()
      (drop_path2): Identity()
    )
    (3): Block(
      (norm1): LayerNorm((768,), eps=1e-06, elementwise_affine=True)
      (attn): Attention(
        (qkv): Linear(in_features=768, out_features=2304, bias=True)
        (q_norm): Identity()
        (k_norm): Identity()
        (attn_drop): Dropout(p=0.0, inplace=False)
        (proj): Linear(in_features=768, out_features=768, bias=True)
        (proj_drop): Dropout(p=0.0, inplace=False)
      )
      (ls1): Identity()
      (drop_path1): Identity()
      (norm2): LayerNorm((768,), eps=1e-06, elementwise_affine=True)
      (mlp): Mlp(
        (fc1): Linear(in_features=768, out_features=3072, bias=True)
        (act): GELU(approximate='none')
        (drop1): Dropout(p=0.0, inplace=False)
        (norm): Identity()
        (fc2): Linear(in_features=3072, out_features=768, bias=True)
        (drop2): Dropout(p=0.0, inplace=False)
      )
      (ls2): Identity()
      (drop_path2): Identity()
    )
    (4): Block(
      (norm1): LayerNorm((768,), eps=1e-06, elementwise_affine=True)
      (attn): Attention(
        (qkv): Linear(in_features=768, out_features=2304, bias=True)
        (q_norm): Identity()
        (k_norm): Identity()
        (attn_drop): Dropout(p=0.0, inplace=False)
        (proj): Linear(in_features=768, out_features=768, bias=True)
        (proj_drop): Dropout(p=0.0, inplace=False)
      )
      (ls1): Identity()
      (drop_path1): Identity()
      (norm2): LayerNorm((768,), eps=1e-06, elementwise_affine=True)
      (mlp): Mlp(
        (fc1): Linear(in_features=768, out_features=3072, bias=True)
        (act): GELU(approximate='none')
        (drop1): Dropout(p=0.0, inplace=False)
        (norm): Identity()
        (fc2): Linear(in_features=3072, out_features=768, bias=True)
        (drop2): Dropout(p=0.0, inplace=False)
      )
      (ls2): Identity()
      (drop_path2): Identity()
    )
    (5): Block(
      (norm1): LayerNorm((768,), eps=1e-06, elementwise_affine=True)
      (attn): Attention(
        (qkv): Linear(in_features=768, out_features=2304, bias=True)
        (q_norm): Identity()
        (k_norm): Identity()
        (attn_drop): Dropout(p=0.0, inplace=False)
        (proj): Linear(in_features=768, out_features=768, bias=True)
        (proj_drop): Dropout(p=0.0, inplace=False)
      )
      (ls1): Identity()
      (drop_path1): Identity()
      (norm2): LayerNorm((768,), eps=1e-06, elementwise_affine=True)
      (mlp): Mlp(
        (fc1): Linear(in_features=768, out_features=3072, bias=True)
        (act): GELU(approximate='none')
        (drop1): Dropout(p=0.0, inplace=False)
        (norm): Identity()
        (fc2): Linear(in_features=3072, out_features=768, bias=True)
        (drop2): Dropout(p=0.0, inplace=False)
      )
      (ls2): Identity()
      (drop_path2): Identity()
    )
    (6): Block(
      (norm1): LayerNorm((768,), eps=1e-06, elementwise_affine=True)
      (attn): Attention(
        (qkv): Linear(in_features=768, out_features=2304, bias=True)
        (q_norm): Identity()
        (k_norm): Identity()
        (attn_drop): Dropout(p=0.0, inplace=False)
        (proj): Linear(in_features=768, out_features=768, bias=True)
        (proj_drop): Dropout(p=0.0, inplace=False)
      )
      (ls1): Identity()
      (drop_path1): Identity()
      (norm2): LayerNorm((768,), eps=1e-06, elementwise_affine=True)
      (mlp): Mlp(
        (fc1): Linear(in_features=768, out_features=3072, bias=True)
        (act): GELU(approximate='none')
        (drop1): Dropout(p=0.0, inplace=False)
        (norm): Identity()
        (fc2): Linear(in_features=3072, out_features=768, bias=True)
        (drop2): Dropout(p=0.0, inplace=False)
      )
      (ls2): Identity()
      (drop_path2): Identity()
    )
    (7): Block(
      (norm1): LayerNorm((768,), eps=1e-06, elementwise_affine=True)
      (attn): Attention(
        (qkv): Linear(in_features=768, out_features=2304, bias=True)
        (q_norm): Identity()
        (k_norm): Identity()
        (attn_drop): Dropout(p=0.0, inplace=False)
        (proj): Linear(in_features=768, out_features=768, bias=True)
        (proj_drop): Dropout(p=0.0, inplace=False)
      )
      (ls1): Identity()
      (drop_path1): Identity()
      (norm2): LayerNorm((768,), eps=1e-06, elementwise_affine=True)
      (mlp): Mlp(
        (fc1): Linear(in_features=768, out_features=3072, bias=True)
        (act): GELU(approximate='none')
        (drop1): Dropout(p=0.0, inplace=False)
        (norm): Identity()
        (fc2): Linear(in_features=3072, out_features=768, bias=True)
        (drop2): Dropout(p=0.0, inplace=False)
      )
      (ls2): Identity()
      (drop_path2): Identity()
    )
    (8): Block(
      (norm1): LayerNorm((768,), eps=1e-06, elementwise_affine=True)
      (attn): Attention(
        (qkv): Linear(in_features=768, out_features=2304, bias=True)
        (q_norm): Identity()
        (k_norm): Identity()
        (attn_drop): Dropout(p=0.0, inplace=False)
        (proj): Linear(in_features=768, out_features=768, bias=True)
        (proj_drop): Dropout(p=0.0, inplace=False)
      )
      (ls1): Identity()
      (drop_path1): Identity()
      (norm2): LayerNorm((768,), eps=1e-06, elementwise_affine=True)
      (mlp): Mlp(
        (fc1): Linear(in_features=768, out_features=3072, bias=True)
        (act): GELU(approximate='none')
        (drop1): Dropout(p=0.0, inplace=False)
        (norm): Identity()
        (fc2): Linear(in_features=3072, out_features=768, bias=True)
        (drop2): Dropout(p=0.0, inplace=False)
      )
      (ls2): Identity()
      (drop_path2): Identity()
    )
    (9): Block(
      (norm1): LayerNorm((768,), eps=1e-06, elementwise_affine=True)
      (attn): Attention(
        (qkv): Linear(in_features=768, out_features=2304, bias=True)
        (q_norm): Identity()
        (k_norm): Identity()
        (attn_drop): Dropout(p=0.0, inplace=False)
        (proj): Linear(in_features=768, out_features=768, bias=True)
        (proj_drop): Dropout(p=0.0, inplace=False)
      )
      (ls1): Identity()
      (drop_path1): Identity()
      (norm2): LayerNorm((768,), eps=1e-06, elementwise_affine=True)
      (mlp): Mlp(
        (fc1): Linear(in_features=768, out_features=3072, bias=True)
        (act): GELU(approximate='none')
        (drop1): Dropout(p=0.0, inplace=False)
        (norm): Identity()
        (fc2): Linear(in_features=3072, out_features=768, bias=True)
        (drop2): Dropout(p=0.0, inplace=False)
      )
      (ls2): Identity()
      (drop_path2): Identity()
    )
    (10): Block(
      (norm1): LayerNorm((768,), eps=1e-06, elementwise_affine=True)
      (attn): Attention(
        (qkv): Linear(in_features=768, out_features=2304, bias=True)
        (q_norm): Identity()
        (k_norm): Identity()
        (attn_drop): Dropout(p=0.0, inplace=False)
        (proj): Linear(in_features=768, out_features=768, bias=True)
        (proj_drop): Dropout(p=0.0, inplace=False)
      )
      (ls1): Identity()
      (drop_path1): Identity()
      (norm2): LayerNorm((768,), eps=1e-06, elementwise_affine=True)
      (mlp): Mlp(
        (fc1): Linear(in_features=768, out_features=3072, bias=True)
        (act): GELU(approximate='none')
        (drop1): Dropout(p=0.0, inplace=False)
        (norm): Identity()
        (fc2): Linear(in_features=3072, out_features=768, bias=True)
        (drop2): Dropout(p=0.0, inplace=False)
      )
      (ls2): Identity()
      (drop_path2): Identity()
    )
    (11): Block(
      (norm1): LayerNorm((768,), eps=1e-06, elementwise_affine=True)
      (attn): Attention(
        (qkv): Linear(in_features=768, out_features=2304, bias=True)
        (q_norm): Identity()
        (k_norm): Identity()
        (attn_drop): Dropout(p=0.0, inplace=False)
        (proj): Linear(in_features=768, out_features=768, bias=True)
        (proj_drop): Dropout(p=0.0, inplace=False)
      )
      (ls1): Identity()
      (drop_path1): Identity()
      (norm2): LayerNorm((768,), eps=1e-06, elementwise_affine=True)
      (mlp): Mlp(
        (fc1): Linear(in_features=768, out_features=3072, bias=True)
        (act): GELU(approximate='none')
        (drop1): Dropout(p=0.0, inplace=False)
        (norm): Identity()
        (fc2): Linear(in_features=3072, out_features=768, bias=True)
        (drop2): Dropout(p=0.0, inplace=False)
      )
      (ls2): Identity()
      (drop_path2): Identity()
    )
  )
  (norm): LayerNorm((768,), eps=1e-06, elementwise_affine=True)
  (fc_norm): Identity()
  (head_drop): Dropout(p=0.0, inplace=False)
  (head): Linear(in_features=768, out_features=12, bias=True)
)
2024-08-29 05:31:23,094 MobileViTForImageClassification(
  (mobilevit): MobileViTModel(
    (conv_stem): MobileViTConvLayer(
      (convolution): Conv2d(3, 16, kernel_size=(3, 3), stride=(2, 2), padding=(1, 1), bias=False)
      (normalization): BatchNorm2d(16, eps=1e-05, momentum=0.1, affine=True, track_running_stats=True)
      (activation): SiLU()
    )
    (encoder): MobileViTEncoder(
      (layer): ModuleList(
        (0): MobileViTMobileNetLayer(
          (layer): ModuleList(
            (0): MobileViTInvertedResidual(
              (expand_1x1): MobileViTConvLayer(
                (convolution): Conv2d(16, 32, kernel_size=(1, 1), stride=(1, 1), bias=False)
                (normalization): BatchNorm2d(32, eps=1e-05, momentum=0.1, affine=True, track_running_stats=True)
                (activation): SiLU()
              )
              (conv_3x3): MobileViTConvLayer(
                (convolution): Conv2d(32, 32, kernel_size=(3, 3), stride=(1, 1), padding=(1, 1), groups=32, bias=False)
                (normalization): BatchNorm2d(32, eps=1e-05, momentum=0.1, affine=True, track_running_stats=True)
                (activation): SiLU()
              )
              (reduce_1x1): MobileViTConvLayer(
                (convolution): Conv2d(32, 16, kernel_size=(1, 1), stride=(1, 1), bias=False)
                (normalization): BatchNorm2d(16, eps=1e-05, momentum=0.1, affine=True, track_running_stats=True)
              )
            )
          )
        )
        (1): MobileViTMobileNetLayer(
          (layer): ModuleList(
            (0): MobileViTInvertedResidual(
              (expand_1x1): MobileViTConvLayer(
                (convolution): Conv2d(16, 32, kernel_size=(1, 1), stride=(1, 1), bias=False)
                (normalization): BatchNorm2d(32, eps=1e-05, momentum=0.1, affine=True, track_running_stats=True)
                (activation): SiLU()
              )
              (conv_3x3): MobileViTConvLayer(
                (convolution): Conv2d(32, 32, kernel_size=(3, 3), stride=(2, 2), padding=(1, 1), groups=32, bias=False)
                (normalization): BatchNorm2d(32, eps=1e-05, momentum=0.1, affine=True, track_running_stats=True)
                (activation): SiLU()
              )
              (reduce_1x1): MobileViTConvLayer(
                (convolution): Conv2d(32, 24, kernel_size=(1, 1), stride=(1, 1), bias=False)
                (normalization): BatchNorm2d(24, eps=1e-05, momentum=0.1, affine=True, track_running_stats=True)
              )
            )
            (1-2): 2 x MobileViTInvertedResidual(
              (expand_1x1): MobileViTConvLayer(
                (convolution): Conv2d(24, 48, kernel_size=(1, 1), stride=(1, 1), bias=False)
                (normalization): BatchNorm2d(48, eps=1e-05, momentum=0.1, affine=True, track_running_stats=True)
                (activation): SiLU()
              )
              (conv_3x3): MobileViTConvLayer(
                (convolution): Conv2d(48, 48, kernel_size=(3, 3), stride=(1, 1), padding=(1, 1), groups=48, bias=False)
                (normalization): BatchNorm2d(48, eps=1e-05, momentum=0.1, affine=True, track_running_stats=True)
                (activation): SiLU()
              )
              (reduce_1x1): MobileViTConvLayer(
                (convolution): Conv2d(48, 24, kernel_size=(1, 1), stride=(1, 1), bias=False)
                (normalization): BatchNorm2d(24, eps=1e-05, momentum=0.1, affine=True, track_running_stats=True)
              )
            )
          )
        )
        (2): MobileViTLayer(
          (downsampling_layer): MobileViTInvertedResidual(
            (expand_1x1): MobileViTConvLayer(
              (convolution): Conv2d(24, 48, kernel_size=(1, 1), stride=(1, 1), bias=False)
              (normalization): BatchNorm2d(48, eps=1e-05, momentum=0.1, affine=True, track_running_stats=True)
              (activation): SiLU()
            )
            (conv_3x3): MobileViTConvLayer(
              (convolution): Conv2d(48, 48, kernel_size=(3, 3), stride=(2, 2), padding=(1, 1), groups=48, bias=False)
              (normalization): BatchNorm2d(48, eps=1e-05, momentum=0.1, affine=True, track_running_stats=True)
              (activation): SiLU()
            )
            (reduce_1x1): MobileViTConvLayer(
              (convolution): Conv2d(48, 48, kernel_size=(1, 1), stride=(1, 1), bias=False)
              (normalization): BatchNorm2d(48, eps=1e-05, momentum=0.1, affine=True, track_running_stats=True)
            )
          )
          (conv_kxk): MobileViTConvLayer(
            (convolution): Conv2d(48, 48, kernel_size=(3, 3), stride=(1, 1), padding=(1, 1), bias=False)
            (normalization): BatchNorm2d(48, eps=1e-05, momentum=0.1, affine=True, track_running_stats=True)
            (activation): SiLU()
          )
          (conv_1x1): MobileViTConvLayer(
            (convolution): Conv2d(48, 64, kernel_size=(1, 1), stride=(1, 1), bias=False)
          )
          (transformer): MobileViTTransformer(
            (layer): ModuleList(
              (0-1): 2 x MobileViTTransformerLayer(
                (attention): MobileViTAttention(
                  (attention): MobileViTSelfAttention(
                    (query): Linear(in_features=64, out_features=64, bias=True)
                    (key): Linear(in_features=64, out_features=64, bias=True)
                    (value): Linear(in_features=64, out_features=64, bias=True)
                    (dropout): Dropout(p=0.0, inplace=False)
                  )
                  (output): MobileViTSelfOutput(
                    (dense): Linear(in_features=64, out_features=64, bias=True)
                    (dropout): Dropout(p=0.05, inplace=False)
                  )
                )
                (intermediate): MobileViTIntermediate(
                  (dense): Linear(in_features=64, out_features=128, bias=True)
                  (intermediate_act_fn): SiLU()
                )
                (output): MobileViTOutput(
                  (dense): Linear(in_features=128, out_features=64, bias=True)
                  (dropout): Dropout(p=0.05, inplace=False)
                )
                (layernorm_before): LayerNorm((64,), eps=1e-05, elementwise_affine=True)
                (layernorm_after): LayerNorm((64,), eps=1e-05, elementwise_affine=True)
              )
            )
          )
          (layernorm): LayerNorm((64,), eps=1e-05, elementwise_affine=True)
          (conv_projection): MobileViTConvLayer(
            (convolution): Conv2d(64, 48, kernel_size=(1, 1), stride=(1, 1), bias=False)
            (normalization): BatchNorm2d(48, eps=1e-05, momentum=0.1, affine=True, track_running_stats=True)
            (activation): SiLU()
          )
          (fusion): MobileViTConvLayer(
            (convolution): Conv2d(96, 48, kernel_size=(3, 3), stride=(1, 1), padding=(1, 1), bias=False)
            (normalization): BatchNorm2d(48, eps=1e-05, momentum=0.1, affine=True, track_running_stats=True)
            (activation): SiLU()
          )
        )
        (3): MobileViTLayer(
          (downsampling_layer): MobileViTInvertedResidual(
            (expand_1x1): MobileViTConvLayer(
              (convolution): Conv2d(48, 96, kernel_size=(1, 1), stride=(1, 1), bias=False)
              (normalization): BatchNorm2d(96, eps=1e-05, momentum=0.1, affine=True, track_running_stats=True)
              (activation): SiLU()
            )
            (conv_3x3): MobileViTConvLayer(
              (convolution): Conv2d(96, 96, kernel_size=(3, 3), stride=(2, 2), padding=(1, 1), groups=96, bias=False)
              (normalization): BatchNorm2d(96, eps=1e-05, momentum=0.1, affine=True, track_running_stats=True)
              (activation): SiLU()
            )
            (reduce_1x1): MobileViTConvLayer(
              (convolution): Conv2d(96, 64, kernel_size=(1, 1), stride=(1, 1), bias=False)
              (normalization): BatchNorm2d(64, eps=1e-05, momentum=0.1, affine=True, track_running_stats=True)
            )
          )
          (conv_kxk): MobileViTConvLayer(
            (convolution): Conv2d(64, 64, kernel_size=(3, 3), stride=(1, 1), padding=(1, 1), bias=False)
            (normalization): BatchNorm2d(64, eps=1e-05, momentum=0.1, affine=True, track_running_stats=True)
            (activation): SiLU()
          )
          (conv_1x1): MobileViTConvLayer(
            (convolution): Conv2d(64, 80, kernel_size=(1, 1), stride=(1, 1), bias=False)
          )
          (transformer): MobileViTTransformer(
            (layer): ModuleList(
              (0-3): 4 x MobileViTTransformerLayer(
                (attention): MobileViTAttention(
                  (attention): MobileViTSelfAttention(
                    (query): Linear(in_features=80, out_features=80, bias=True)
                    (key): Linear(in_features=80, out_features=80, bias=True)
                    (value): Linear(in_features=80, out_features=80, bias=True)
                    (dropout): Dropout(p=0.0, inplace=False)
                  )
                  (output): MobileViTSelfOutput(
                    (dense): Linear(in_features=80, out_features=80, bias=True)
                    (dropout): Dropout(p=0.05, inplace=False)
                  )
                )
                (intermediate): MobileViTIntermediate(
                  (dense): Linear(in_features=80, out_features=160, bias=True)
                  (intermediate_act_fn): SiLU()
                )
                (output): MobileViTOutput(
                  (dense): Linear(in_features=160, out_features=80, bias=True)
                  (dropout): Dropout(p=0.05, inplace=False)
                )
                (layernorm_before): LayerNorm((80,), eps=1e-05, elementwise_affine=True)
                (layernorm_after): LayerNorm((80,), eps=1e-05, elementwise_affine=True)
              )
            )
          )
          (layernorm): LayerNorm((80,), eps=1e-05, elementwise_affine=True)
          (conv_projection): MobileViTConvLayer(
            (convolution): Conv2d(80, 64, kernel_size=(1, 1), stride=(1, 1), bias=False)
            (normalization): BatchNorm2d(64, eps=1e-05, momentum=0.1, affine=True, track_running_stats=True)
            (activation): SiLU()
          )
          (fusion): MobileViTConvLayer(
            (convolution): Conv2d(128, 64, kernel_size=(3, 3), stride=(1, 1), padding=(1, 1), bias=False)
            (normalization): BatchNorm2d(64, eps=1e-05, momentum=0.1, affine=True, track_running_stats=True)
            (activation): SiLU()
          )
        )
        (4): MobileViTLayer(
          (downsampling_layer): MobileViTInvertedResidual(
            (expand_1x1): MobileViTConvLayer(
              (convolution): Conv2d(64, 128, kernel_size=(1, 1), stride=(1, 1), bias=False)
              (normalization): BatchNorm2d(128, eps=1e-05, momentum=0.1, affine=True, track_running_stats=True)
              (activation): SiLU()
            )
            (conv_3x3): MobileViTConvLayer(
              (convolution): Conv2d(128, 128, kernel_size=(3, 3), stride=(2, 2), padding=(1, 1), groups=128, bias=False)
              (normalization): BatchNorm2d(128, eps=1e-05, momentum=0.1, affine=True, track_running_stats=True)
              (activation): SiLU()
            )
            (reduce_1x1): MobileViTConvLayer(
              (convolution): Conv2d(128, 80, kernel_size=(1, 1), stride=(1, 1), bias=False)
              (normalization): BatchNorm2d(80, eps=1e-05, momentum=0.1, affine=True, track_running_stats=True)
            )
          )
          (conv_kxk): MobileViTConvLayer(
            (convolution): Conv2d(80, 80, kernel_size=(3, 3), stride=(1, 1), padding=(1, 1), bias=False)
            (normalization): BatchNorm2d(80, eps=1e-05, momentum=0.1, affine=True, track_running_stats=True)
            (activation): SiLU()
          )
          (conv_1x1): MobileViTConvLayer(
            (convolution): Conv2d(80, 96, kernel_size=(1, 1), stride=(1, 1), bias=False)
          )
          (transformer): MobileViTTransformer(
            (layer): ModuleList(
              (0-2): 3 x MobileViTTransformerLayer(
                (attention): MobileViTAttention(
                  (attention): MobileViTSelfAttention(
                    (query): Linear(in_features=96, out_features=96, bias=True)
                    (key): Linear(in_features=96, out_features=96, bias=True)
                    (value): Linear(in_features=96, out_features=96, bias=True)
                    (dropout): Dropout(p=0.0, inplace=False)
                  )
                  (output): MobileViTSelfOutput(
                    (dense): Linear(in_features=96, out_features=96, bias=True)
                    (dropout): Dropout(p=0.05, inplace=False)
                  )
                )
                (intermediate): MobileViTIntermediate(
                  (dense): Linear(in_features=96, out_features=192, bias=True)
                  (intermediate_act_fn): SiLU()
                )
                (output): MobileViTOutput(
                  (dense): Linear(in_features=192, out_features=96, bias=True)
                  (dropout): Dropout(p=0.05, inplace=False)
                )
                (layernorm_before): LayerNorm((96,), eps=1e-05, elementwise_affine=True)
                (layernorm_after): LayerNorm((96,), eps=1e-05, elementwise_affine=True)
              )
            )
          )
          (layernorm): LayerNorm((96,), eps=1e-05, elementwise_affine=True)
          (conv_projection): MobileViTConvLayer(
            (convolution): Conv2d(96, 80, kernel_size=(1, 1), stride=(1, 1), bias=False)
            (normalization): BatchNorm2d(80, eps=1e-05, momentum=0.1, affine=True, track_running_stats=True)
            (activation): SiLU()
          )
          (fusion): MobileViTConvLayer(
            (convolution): Conv2d(160, 80, kernel_size=(3, 3), stride=(1, 1), padding=(1, 1), bias=False)
            (normalization): BatchNorm2d(80, eps=1e-05, momentum=0.1, affine=True, track_running_stats=True)
            (activation): SiLU()
          )
        )
      )
    )
    (conv_1x1_exp): MobileViTConvLayer(
      (convolution): Conv2d(80, 320, kernel_size=(1, 1), stride=(1, 1), bias=False)
      (normalization): BatchNorm2d(320, eps=1e-05, momentum=0.1, affine=True, track_running_stats=True)
      (activation): SiLU()
    )
  )
  (dropout): Dropout(p=0.1, inplace=True)
  (classifier): Linear(in_features=320, out_features=12, bias=True)
)
2024-08-29 05:31:23,097 Epoch 1/50
2024-08-29 05:31:25,956 CPU usage: 22.2%
2024-08-29 05:31:25,956 Memory usage: 1560.44140625 MB
2024-08-29 05:31:25,956 GPU memory usage: 2216.0 MB
2024-08-29 05:31:25,957 Train - Loss: 3.283459186553955, Student Loss: 0.019035592675209045, Distillation Loss: 3.6461730003356934
2024-08-29 05:31:27,666 CPU usage: 62.1%
…
